models/mobilenet_v2_plant_disease.onnx (onnx, 277236 bytes, 13 tensors)

classifier.1.bias f4 [15]
-0.03564059 -0.018540995 -0.027038563 0.013188204 0.026791058 -0.04850499 -0.047123473 0.014861307
-0.017864281 -0.0061593377 -0.028342085 0.042567644 0.02782559 0.0039173695 -0.011861321
00000000: defb 11bd 49e3 97bc fa7f ddbc 5613 583c
00000010: ec78 db3c 2bad 46bd 8b04 41bd d77c 733c
00000020: 1d58 92bc 45d4 c9bb a92d e8bc 695b 2e3d
00000030: 7ef2 e33c 475d 803b fc55 42bc

features.0.0.weight_bias f4 [32]
-0.06742244 0.53208274 0.3564903 0.29980627 1.0224984 0.766826 0.48864198 0.4639224
0.6136819 -0.0053690937 -0.18969831 0.9119102 0.4500825 -0.48536116 -0.0044698664 0.002865756
-0.046415962 -0.016264454 0.31338432 -0.19493093 -0.1219686 0.54863685 0.23242441 -0.017318627
-0.2693017 0.5012444 -0.17440253 0.7412998 0.06702023 0.037102293 0.70678353 0.21377629
00000000: c714 8abd 9336 083f e685 b63e 3580 993e
00000010: 3ae1 823f b54e 443f 482f fa3e 3d87 ed3e
00000020: 421a 1d3f 39ef afbb 4640 42be f272 693f
00000030: 3771 e63e 4281 f8be f577 92bb 68cf 3b3b
00000040: aa1e 3ebd 083d 85bc e973 a03e f99b 47be
00000050: acca f9bd 7773 0c3f aa00 6e3e cbdf 8dbc
00000060: eae1 89be 8e51 003f 9496 32be d3c5 3d3f
00000070: e741 893d 93f8 173d c4ef 343f 2ce8 5a3e

features.1.conv.0.0.weight_bias f4 [32]
-0.011896326 0.93292654 -0.5013983 0.41299787 0.26239383 0.8232171 0.85262823 0.41347238
4.151416 -0.0046608574 0.3184703 0.32844973 0.7497175 -0.37803507 -0.005671021 -0.0055070547
0.00833052 0.013608518 0.016781233 0.07592933 -0.29875922 1.6703684 0.8328278 0.0012245276
0.7754024 -0.6194738 -0.3850043 0.80623937 0.68520594 0.29294863 0.9397851 -0.20826188
00000000: cfe8 42bc 46d4 6e3f a45b 00bf 7574 d33e
00000010: 7c58 863e 5bbe 523f d845 5a3f a7b2 d33e
00000020: 66d8 8440 1bba 98bb 8a0e a33e 902a a83e
00000030: 7ced 3f3f d08d c1be f9d3 b9bb 8674 b4bb
00000040: bc7c 083c 43f6 5e3c cc78 893c d680 9b3d
00000050: f8f6 98be a2ce d53f 3434 553f 5480 a03a
00000060: c680 463f d695 1ebf 491f c5be b465 4e3f
00000070: a869 2f3f 5dfd 953e c295 703f 9a42 55be

features.1.conv.1.weight_bias f4 [16]
-2.1998103 0.5684182 -1.457384 1.217993 -0.08800973 -0.55437565 -0.80498326 -2.2269883
-0.9441433 -1.9944342 1.5670376 -0.529306 -0.8650178 -0.23045129 2.0510588 1.7388326
00000000: b1c9 0cc0 db83 113f 8f8b babf 32e7 9b3f
00000010: 723e b4bd 90eb 0dbf 6213 4ebf fa86 0ec0
00000020: 60b3 71bf 9f49 ffbf b094 c83f 9980 07bf
00000030: ce71 5dbf 6cfb 6bbe 8c44 0340 1192 de3f

features.2.conv.2.weight_bias f4 [24]
-1.3586084 0.66500044 -0.7501695 -0.22960204 -0.102085374 -0.75475836 -0.51160634 0.24647242
-0.2675874 -0.03631419 -0.0021815565 0.4948293 0.18018131 1.659323 1.3912168 0.7562133
0.16740365 -0.09299206 -0.55725616 0.13842826 0.30065465 0.3036056 0.19364852 0.1256506
00000000: e1e6 adbf 783d 2a3f 1c0b 40bf cc1c 6bbe
00000010: 2312 d1bd d837 41bf a2f8 02bf 4463 7c3e
00000020: 3701 89be 30be 14bd 72f8 0ebb 445a fd3e
00000030: 7381 383e b264 d43f 6413 b23f 3297 413f
00000040: dd6b 2b3e 9f72 bebd 57a8 0ebf 23c0 0d3e
00000050: 68ef 993e 3172 9b3e cc4b 463e 8daa 003e

features.3.conv.2.weight_bias f4 [24]
-1.0787618 -1.0494264 0.053430956 -0.11246356 -1.1318502 1.2525101 1.0157576 0.086688854
0.0898054 -0.10854569 -1.924454 -0.5877605 0.7451928 -1.2922585 0.11891412 -0.3955426
0.4081387 -0.5758438 -0.49133632 0.3371722 0.9931375 0.86332756 -2.2543337 1.2897596
00000000: de14 8abf 9b53 86bf 6bda 5a3d 4c53 e6bd
00000010: 78e0 90bf 4052 a03f 5804 823f ed89 b13d
00000020: e5eb b73d 344d debd 8254 f6bf 7977 16bf
00000030: f5c4 3e3f ba68 a5bf 3f89 f33d 8f84 cabe
00000040: 8ef7 d03e 806a 13bf 6f90 fbbe d6a1 ac3e
00000050: 423e 7e3f 0903 5d3f 0147 10c0 d816 a53f

features.4.conv.2.weight_bias f4 [32]
0.9322062 0.5609902 -0.6540374 0.7092301 0.19375224 -1.662889 -0.24267635 -0.3024074
0.031775907 -1.8320378 0.82183516 1.4549917 0.58396775 0.92216396 0.08686452 -0.62110394
0.6906086 -0.07343965 0.53349143 -0.3085658 -0.22901967 0.41796783 -0.5075923 0.3772452
-0.82801193 1.0596706 -0.13251331 -1.1414598 0.3385159 -1.0822468 -0.7196265 -0.18998058
00000000: 11a5 6e3f 0e9d 0f3f ff6e 27bf 1b90 353f
00000010: fd66 463e 8cd9 d4bf 2680 78be 25d5 9abe
00000020: 7427 023d 3780 eabf ca63 523f 2b3d ba3f
00000030: e97e 153f f012 6c3f 07e6 b13d ab00 1fbf
00000040: bacb 303f 8767 96bd e592 083f 56fc 9dbe
00000050: 2284 6abe e1ff d53e 92f1 01bf 4826 c13e
00000060: 97f8 53bf 49a3 873f 92b1 07be 5b1b 92bf
00000070: f551 ad3e 1087 8abf 7139 38bf 458a 42be

features.5.conv.2.weight_bias f4 [32]
0.0951196 0.19303223 -0.43315193 0.6434352 -0.18402974 -0.0471692 0.14937074 -0.34845245
-0.5697499 0.09722006 0.059742194 -0.15539043 -0.3590162 -0.4125869 0.026273688 -0.40151846
0.3067069 -0.14755839 0.124381706 0.5150847 0.575276 -0.30962187 0.2289473 -0.3646984
0.07892617 -0.14242679 -0.45869258 0.48986962 0.4627829 -0.16527617 -0.2361477 0.1670091
00000000: 11ce c23d 3eaa 453e 17c6 ddbe 2bb8 243f
00000010: 4b72 3cbe 7e34 41bd a5f4 183e 5c68 b2be
00000020: 21db 11bf 501b c73d 3bb4 743d ab1e 1fbe
00000030: f9d0 b7be 973e d3be eb3b d73c d493 cdbe
00000040: b008 9d3e 8c19 17be d6bb fe3d 97dc 033f
00000050: 4a45 133f c286 9ebe 2971 6a3e c0b9 babe
00000060: 0ba4 a13d 54d8 11be c1d9 eabe 31d0 fa3e
00000070: e1f1 ec3e 283e 29be b4d0 71be 6f04 2b3e

features.6.conv.2.weight_bias f4 [32]
-0.3848872 0.057790365 -0.25168127 0.18784812 0.26898554 0.26881745 -0.38884166 0.17043982
-0.058494568 0.6527227 0.23296691 0.13520132 0.20847593 0.21720633 0.2730078 -0.57208943
-0.73032427 -0.4871072 0.0781639 0.8694201 0.33397108 0.20365518 -0.06983901 0.26543215
-0.0634261 -0.62709546 -0.3817725 0.4175671 -0.22716618 -0.5186378 0.48128033 -0.32103375
00000000: ef0f c5be 97b5 6c3d 5edc 80be 425b 403e
00000010: 79b8 893e 71a2 893e 4116 c7be c787 2e3e
00000020: 0098 6fbd d618 273f e18e 6e3e 3772 0a3e
00000030: b77a 553e 566b 5e3e aec7 8b3e 7474 12bf
00000040: 88f6 3abf 1d66 f9be 6514 a03d 5192 5e3f
00000050: 42fe aa3e fc8a 503e c107 8fbd b9e6 873e
00000060: 8be5 81bd 5489 20bf af77 c3be 5bcb d53e
00000070: 409e 68be 72c5 04bf 606a f63e 895e a4be

features.7.conv.2.weight_bias f4 [64]
-0.5016358 -0.15230791 -0.9193751 -0.07803323 -0.5473353 -0.09437991 0.13062133 -0.905452
-0.04971133 2.0561066 -1.48282 1.0701452 0.06498637 -0.5498456 0.41607064 0.11744208
-0.26512563 -0.33462313 -0.17402017 -0.31241375 -0.05020832 -1.030098 0.73974836 0.43140885
0.12205129 -0.15657088 0.7938279 -0.85182524 0.17280494 -1.2150987 0.15954983 0.26838633
1.0942262 0.5160922 0.3168592 -0.10267806 -0.10524086 -0.055171292 -1.1267432 -0.17051113
1.3014313 0.8302126 -0.75900954 -0.7872459 -0.85591996 -0.013016549 0.19860557 -0.31386447
0.6574367 0.39361286 0.5463715 0.16945311 1.2150255 0.6067618 0.939932 -0.005764869
0.95914036 -1.1952841 0.23491776 -0.30801055 -0.28384358 0.48574865 1.0611517 -0.19396563
00000000: 346b 00bf 9bf6 1bbe 2b5c 6bbf e3cf 9fbd
00000010: 2b1e 0cbf 414a c1bd 99c1 053e b4cb 67bf
00000020: 1c9e 4bbd 4097 0340 0ccd bdbf 85fa 883f
00000030: 9317 853d aec2 0cbf 3607 d53e 7985 f03d
00000040: 8cbe 87be b953 abbe 5832 32be b2f4 9fbe
00000050: 3da7 4dbd 40da 83bf 2660 3d3f 9fe1 dc3e
00000060: 07f6 f93d 1e54 20be 4e38 4b3f 3811 5abf
00000070: c7f3 303e 5b88 9bbf 0861 233e ef69 893e
00000080: 9b0f 8c3f 9e1e 043f 5e3b a23e e048 d2bd
00000090: 8588 d7bd 4bfb 61bd 1f39 90bf 789a 2ebe
000000a0: 4d95 a63f d088 543f 734e 42bf f388 49bf
000000b0: 921d 5bbf 5d43 55bc 425f 4b3e d8b2 a0be
000000c0: c64d 283f a087 c93e 01df 0b3f 1e85 2d3e
000000d0: f585 9b3f be54 1b3f 629f 703f 3ae7 bcbb
000000e0: 398a 753f 12ff 98bf 488e 703e 8fb3 9dbe
000000f0: f253 91be 0cb4 f83e d2d3 873f ed9e 46be

features.8.conv.2.weight_bias f4 [64]
-0.25447422 -0.16309814 0.07623207 0.2097282 -0.14088109 0.00030647358 0.026077544 -0.49267477
-0.27207533 0.028289804 -0.23709425 0.14862989 0.09381221 -0.063002236 0.06495796 0.22904462
0.2706282 0.067206696 0.30500504 -0.2759529 -0.17468247 -0.4995831 0.01403593 0.39622042
0.1514648 -0.23406257 0.9007848 -0.15379424 0.13646087 0.11575084 0.34287447 0.6124302
-0.09951005 0.15156367 -1.0213519 -0.3884861 0.6024227 -0.06849911 0.114885986 -0.25339794
-0.10181951 -0.3162427 0.26753837 -0.08986943 0.5011587 0.11259567 0.009711878 0.7502839
0.1551327 0.16859972 -0.078778654 0.27925104 0.13206305 -0.23993199 -0.29709798 0.43957973
0.34296256 -0.07021759 0.23563111 0.7208676 0.8223101 -0.61091566 0.0020750389 -0.25770524
00000000: 724a 82be 3303 27be 8f1f 9c3d fdc2 563e
00000010: 2243 10be 30ae a039 93a0 d53c de3f fcbe
00000020: 754d 8bbe 05c0 e73c d6c8 72be 6f32 183e
00000030: 9e20 c03d 5107 81bd ae08 853d ac8a 6a3e
00000040: c88f 8a3e aaa3 893d 9f29 9c3e b349 8dbe
00000050: f6df 32be 5bc9 ffbe f5f6 653c 67dd ca3e
00000060: 9719 1b3e 19ae 6fbe d599 663f 3d7c 1dbe
00000070: 66bc 0b3e c70e ed3d 3e8d af3e 3ac8 1c3f
00000080: edcb cbbd 8233 1b3e a9bb 82bf a6e7 c6be
00000090: 6038 1a3f 4349 8cbd 5849 eb3d 60bd 81be
000000a0: bf86 d0bd 90ea a1be cafa 883e 770d b8bd
000000b0: f04b 003f 8f98 e63d 921e 1f3c 9b12 403f
000000c0: 1bdb 1e3e 68a5 2c3e b456 a1bd fef9 8e3e
000000d0: 893b 073e bbb0 75be 3a1d 98be 9810 e13e
000000e0: ca98 af3e 3dce 8fbd 4849 713e c78a 383f
000000f0: ea82 523f f864 1cbf 60fd 073b f1f1 83be

features.9.conv.2.weight_bias f4 [64]
0.2924898 0.14883223 -0.34739617 -0.141188 -0.27108926 -0.27979746 0.25542644 0.086513415
-0.473977 0.08333649 0.16196153 -0.26610678 -0.09733614 -0.30634445 0.071006306 0.2839287
0.16169447 -0.3221424 0.43620184 0.04900915 0.29340512 0.4395409 0.26937392 -0.05963027
0.21884304 -0.08884239 0.1651199 -0.022553883 0.030657182 -0.0011426987 0.00041963378 -0.08252685
-0.023025354 -0.42451385 0.17264976 -0.22999603 -0.20129335 -0.45099327 0.13168432 0.34185505
-0.1631949 -0.22070621 0.17687733 0.18485579 0.17320903 0.20031674 -0.07871315 0.3092647
-0.20917004 0.007400467 0.046656832 -0.4113557 -0.28427172 -0.09263344 -0.025697185 0.024082948
0.00041653324 0.03964312 -0.20257032 -0.22602499 0.90554786 0.43352848 0.21404576 -0.1681074
00000000: 39c1 953e 7a67 183e e9dd b1be 9693 10be
00000010: 36cc 8abe 9d41 8fbe 41c7 823e f22d b13d
00000020: 1dad f2be 52ac aa3d 3ed9 253e 263f 88be
00000030: 2c58 c7bd 2ed9 9cbe c16b 913d 1a5f 913e
00000040: 3c93 253e d9ef a4be d955 df3e d2bd 483d
00000050: 3239 963e 810b e13e 61eb 893e df3e 74bd
00000060: 6418 603e 00f3 b5bd 3115 293e ecc2 b8bc
00000070: c524 fb3c 9bc6 95ba 4b02 dc39 d603 a9bd
00000080: ab9f bcbc e159 d9be 19cb 303e 1484 6bbe
00000090: d81f 4ebe 97e8 e6be 41d8 063e a007 af3e
000000a0: 901c 27be cf00 62be 551f 353e d64a 3d3e
000000b0: b55d 313e d51f 4d3e 5c34 a1bd f157 9e3e
000000c0: ac30 56be 9e7f f23b 3c1b 3f3d 379d d2be
000000d0: 108c 91be 9ab6 bdbd e782 d2bc 9a49 c53c
000000e0: 2562 da39 d360 223d 986e 4fbe 1873 67be
000000f0: fcd1 673f 72f7 dd3e d02e 5b3e 5924 2cbe

features.10.conv.2.weight_bias f4 [64]
-0.27264178 -0.14817162 0.13508518 -0.47799534 0.5907302 -0.110455714 -0.14782476 0.23859406
-0.6784839 0.5802251 -0.06585353 -0.4490255 -0.4247159 -0.5083423 -0.37083387 -0.2543857
0.2199887 -0.16205722 0.28496522 0.15946247 0.092533305 0.19473016 -0.60138535 0.1624989
-0.02708246 -0.084490344 0.30201915 0.1160402 -0.16556169 -0.23041637 -0.027772699 -0.64376444
-0.7391868 0.21923092 0.29132262 0.06118465 -0.068495154 -0.15857224 -0.13698581 0.18750603
0.46095592 0.005888364 0.00012909112 0.100133255 -0.08659682 -0.15068328 -0.22847255 -0.3802621
0.21638887 -0.32627207 -0.040296104 -0.02925606 -0.34923524 0.27455762 0.027064577 -0.07690528
0.21933468 -0.30491418 -0.8307441 -0.32590306 0.054459248 -0.26608372 -0.045494586 0.18261635
00000000: b497 8bbe 4dba 17be c553 0a3e cebb f4be
00000010: 183a 173f 9b36 e2bd 605f 17be 0052 743e
00000020: 1fb1 2dbf a289 143f 37de 86bd ace6 e5be
00000030: 5d74 d9be b922 02bf f0dd bdbe d83e 82be
00000040: b844 613e 54f2 25be f6e6 913e 214a 233e
00000050: 1a82 bd3d 5867 473e 64f4 19bf 1d66 263e
00000060: 09dc ddbc 4609 adbd 41a2 9a3e 7ca6 ed3d
00000070: 0189 29be 45f2 6bbe 9283 e3bc bfcd 24bf
00000080: 593b 3dbf 127e 603e 3d28 953e c19c 7a3d
00000090: 3047 8cbd c360 22be 0246 0cbe 9501 403e
000000a0: 6a02 ec3e 2df3 c03b a25c 0739 aa12 cd3d
000000b0: ac59 b1bd b84c 1abe b5f4 69be b7b1 c2be
000000c0: 0b95 5d3e 220d a7be 870d 25bd 68aa efbc
000000d0: f6ce b2be d192 8c3e 88b6 dd3c 8480 9dbd
000000e0: 4599 603e b61d 9cbe a5ab 54bf c4dc a6be
000000f0: a910 5f3d 203c 88be 8858 3abd c8ff 3a3e
