models/mobilenet_v2_plant_disease.onnx (onnx, 277236 bytes, 13 tensors)

classifier.1.bias f4 [15]
000000 8d db 65 bd 89 ef 48 3c 90 5c 01 bd 5a bf a4 3c
       -0.056117583 0.012264141 -0.031582415 0.020110775
000010 da 25 70 bc 05 c0 48 bd 88 d1 ae bc cf 2a 86 bc
       -0.014657462 -0.04901125 -0.021340147 -0.016377835
000020 d1 e7 8f 3b c5 8f 1e 3d 7d b5 56 3c 80 e6 13 3d
       0.0043916483 0.038711328 0.013104794 0.036108494
000030 9c d7 d2 3c e8 c0 88 3b 6a 83 0b bb
       0.025737576 0.004173387 -0.0021288046

features.0.0.weight_bias f4 [32]
000000 17 7f 8a bd 84 4c 08 3f 4d 8a b6 3e 90 73 99 3e
       -0.06762522 0.53241754 0.3565239 0.2997098
000010 b8 be 82 3f 8c 22 45 3f 3e 33 fa 3e b4 98 ee 3e
       1.0214453 0.7700584 0.4886722 0.46600878
000020 34 1d 1d 3f f0 4a ad bb 6a e2 3d be b1 ae 69 3f
       0.61372685 -0.0052884743 -0.18543401 0.9128218
000030 50 54 e6 3e 28 42 f7 be d4 ff 8f bb 72 9c 3f 3b
       0.449862 -0.4829266 -0.0043945108 0.0029237536
000040 8a b4 3d bd 76 91 85 bc 95 ba a0 3e fd 5f 50 be
       -0.046314754 -0.016304713 0.3139235 -0.20349117
000050 e4 75 00 be 8e 30 0c 3f 9b aa 67 3e 6b 9f 8d bc
       -0.12544972 0.5476159 0.22623675 -0.01728793
000060 ce 0a 8b be 92 58 00 3f 58 58 35 be c8 fb 3c 3f
       -0.2715668 0.5013515 -0.17709482 0.7382169
000070 03 9f 86 3d 5f 8f 0f 3d e2 a8 35 3f 16 2d 5c 3e
       0.06573298 0.03504884 0.7096082 0.21501574

features.1.conv.0.0.weight_bias f4 [32]
000000 d0 e8 42 bc 6e d1 6e 3f e8 19 07 bf 56 d0 d3 3e
       -0.011896327 0.93288314 -0.52773905 0.41369885
000010 a0 6c 86 3e b3 d3 52 3f 76 99 5a 3f 9d b6 d3 3e
       0.2625475 0.8235428 0.8539041 0.4135026
000020 98 3d 83 40 4c ba 98 bb e8 e4 a2 3e 77 0b a8 3e
       4.101269 -0.00466088 0.31815267 0.32821247
000030 ab c3 3f 3f f4 f9 c0 be 0a d2 b9 bb c5 70 b4 bb
       0.7490794 -0.376907 -0.0056707906 -0.0055066072
000040 bc 7c 08 3c 43 f6 5e 3c 40 a9 8a 3c cc 21 9f 3d
       0.00833052 0.013608518 0.016926408 0.07770118
000050 68 80 99 be 3d 1a d6 3f 2f ef 55 3f 54 80 a0 3a
       -0.2998078 1.6726757 0.8356809 0.0012245276
000060 7e 8e 46 3f 02 5b 1a bf eb c0 c5 be 62 59 4e 3f
       0.77561176 -0.60295117 -0.38623747 0.8060514
000070 82 71 2f 3f ca 48 96 3e 79 ea 70 3f c8 37 55 be
       0.68532574 0.2935241 0.94107777 -0.2082206

features.1.conv.1.weight_bias f4 [16]
000000 33 ff 0b c0 fd a1 0d 3f 92 6b b9 bf c9 c7 9a 3f
       -2.1874511 0.553253 -1.4485953 1.209222
000010 73 9e b3 bd a1 04 0e bf d9 06 4d bf 6c 80 0e c0
       -0.08770456 -0.55475813 -0.80088574 -2.2265882
000020 fc 98 6d bf 93 a7 fc bf 66 34 c8 3f 46 cd 05 bf
       -0.9281156 -1.973864 1.5640991 -0.5226635
000030 c2 65 59 bf 31 96 6b be d0 7a 02 40 14 7d de 3f
       -0.84920895 -0.23006512 2.0387459 1.7381921

features.2.conv.2.weight_bias f4 [24]
000000 5b 47 ad bf 36 b9 2a 3f 9b 35 42 bf 73 f1 69 be
       -1.3537401 0.6668886 -0.75863045 -0.22846012
000010 cf 2a d0 bd 83 c4 40 bf 06 7d 02 bf e2 14 78 3e
       -0.10164415 -0.75299853 -0.5097202 0.24226716
000020 4a 82 87 be a6 01 13 bd 6e 13 21 bb 6c cb fa 3e
       -0.2646659 -0.035890244 -0.0024578231 0.48983324
000030 87 4e 35 3e 78 72 d6 3f 3f 07 b2 3f ea 85 41 3f
       0.17705737 1.6753683 1.3908461 0.7559496
000040 88 dd 2d 3e be 24 cb bd 68 f9 0c bf f0 b3 0d 3e
       0.16979039 -0.099191174 -0.55068064 0.13838172
000050 0a 24 9a 3e f8 aa 9b 3e bc 95 43 3e 85 49 fd 3d
       0.3010562 0.30403876 0.19100088 0.12367538

features.3.conv.2.weight_bias f4 [24]
000000 d6 e3 8a bf c2 c3 85 bf 98 35 60 3d c5 c6 e8 bd
       -1.085078 -1.0450366 0.05473861 -0.11366037
000010 c1 cc 91 bf 51 a1 9e 3f e0 47 81 3f a3 cd b3 3d
       -1.1390611 1.239298 1.010006 0.087794565
000020 7f 70 b7 3d 32 dc dd bd 4e 4c f6 bf 4b 32 16 bf
       0.08957004 -0.108330145 -1.9242036 -0.5867049
000030 77 f8 3e 3f cc da a4 bf 41 02 f6 3d 0e 86 ca be
       0.7459788 -1.2879272 0.12012149 -0.395554
000040 ec 26 d0 3e d0 e0 13 bf 71 13 fd be 5a 1d ac 3e
       0.40654695 -0.5776491 -0.49428895 0.33616143
000050 1f 86 7e 3f 98 5d 5c 3f 93 82 0f c0 7a be a5 3f
       0.994234 0.8608031 -2.2423446 1.2948754

features.4.conv.2.weight_bias f4 [32]
000000 65 ec 6e 3f 61 f1 0e 3f 54 42 26 bf c8 16 35 3f
       0.9332946 0.55837065 -0.6494496 0.70737886
000010 39 0b 46 3e 1f d8 d5 bf e2 f9 76 be 58 29 98 be
       0.19340219 -1.670658 -0.2411876 -0.29719043
000020 db 75 06 3d c5 59 ed bf 37 47 50 3f ac 35 b9 3f
       0.03282724 -1.854302 0.81358665 1.4469504
000030 5f 09 15 3f 80 ee 6c 3f 5e f5 af 3d a3 05 1f bf
       0.58217424 0.9255142 0.08591722 -0.62117976
000040 1e c2 31 3f 01 01 9a bd 56 af 08 3f ac 87 9e be
       0.69436824 -0.07519723 0.5339254 -0.30962884
000050 5b c6 68 be 73 a0 d7 3e 64 f2 01 bf 8e 26 c0 3e
       -0.22731917 0.421146 -0.50760484 0.37529415
000060 87 2a 54 bf 1d de 86 3f 0f 68 07 be 9b 78 93 bf
       -0.8287739 1.0536534 -0.13223289 -1.1521181
000070 77 a4 ae 3e 0b 5b 89 bf fd 02 37 bf cd f5 41 be
       0.34109852 -1.0730909 -0.71488935 -0.18941422

features.5.conv.2.weight_bias f4 [32]
000000 7f 11 be 3d 16 2c 46 3e 97 96 dd be b7 9c 24 3f
       0.09280681 0.19352755 -0.43278953 0.6430163
000010 e2 ac 3e be df cf 3e bd 70 d0 18 3e c9 34 b1 be
       -0.18620637 -0.04658496 0.14923263 -0.34610584
000020 b8 c8 11 bf fd 02 c8 3d 26 e1 72 3d d2 26 20 be
       -0.569469 0.09766195 0.05929675 -0.15639809
000030 5a 38 b9 be 7e ec d3 be be cd db 3c 48 3b cd be
       -0.36175805 -0.41391367 0.026831504 -0.4008429
000040 04 02 9c 3e 1c 09 18 be d6 30 00 3e 78 56 04 3f
       0.30470288 -0.14847225 0.1251863 0.5169444
000050 da 1e 14 3f 69 15 9d be ae 56 68 3e 06 c9 ba be
       0.57859576 -0.30680397 0.22689316 -0.36481494
000060 2e 3a a2 3d be b1 11 be e6 ab ea be 35 63 fb 3e
       0.07921253 -0.1422796 -0.45834273 0.49099126
000070 56 81 ed 3e 12 39 28 be 5b 64 71 be 38 87 2c 3e
       0.46387738 -0.1642802 -0.23573439 0.16848457

features.6.conv.2.weight_bias f4 [32]
000000 b5 09 c6 be 6c cd 6f 3d 3a f9 80 be 66 6e 41 3e
       -0.3867928 0.058545515 -0.25190145 0.1888977
000010 b1 14 89 3e 84 51 89 3e 69 28 c7 be 4a 62 2e 3e
       0.267736 0.26820004 -0.38898018 0.17029682
000020 23 af 70 bd a6 59 27 3f 6a b5 6f 3e bc 5a 0a 3e
       -0.058760773 0.6537117 0.23409048 0.13511175
000030 93 d4 54 3e 72 20 5e 3e d1 90 8b 3e 89 cc 12 bf
       0.20784216 0.21692064 0.27258924 -0.57343346
000040 3a 00 3b bf e1 43 fb be d7 0b a1 3d 26 7a 5e 3f
       -0.7304722 -0.49075225 0.078635864 0.86905134
000050 76 2b aa 3e b7 fd 4f 3e d7 1c 8e bd ab 2e 88 3e
       0.33236283 0.20311628 -0.069390945 0.26598105
000060 0b 79 84 bd f9 69 21 bf ab 3c c3 be 15 d6 d5 3e
       -0.064683996 -0.63052326 -0.38132223 0.41764894
000070 3b 47 68 be 3b 8e 05 bf 63 2a f6 3e c1 94 a4 be
       -0.22683422 -0.5217015 0.48079214 -0.3214474

features.7.conv.2.weight_bias f4 [64]
000000 97 24 00 bf ce 72 1b be 0d 52 6a bf ce b7 9e bd
       -0.5005583 -0.15180513 -0.9153145 -0.07749902
000010 2f fe 0c bf 7a 62 c3 bd 54 ef 05 3e eb ce 68 bf
       -0.55075353 -0.09540267 0.13079578 -0.9094073
000020 07 29 4b bd cc 3e 04 40 d5 3c bc bf cb f0 88 3f
       -0.049599674 2.0663328 -1.4706064 1.0698484
000030 a4 bc 84 3d e1 44 0f bf ae 91 d7 3e 9c 3b f1 3d
       0.06481293 -0.55964476 0.42103332 0.11778948
000040 3f d8 85 be f3 a0 ab be 1c 1e 31 be b9 4d a0 be
       -0.26141545 -0.33521232 -0.17296642 -0.31309298
000050 d7 8e 48 bd 02 74 83 bf ee 25 3f 3f 67 7f dc 3e
       -0.048964348 -1.0269778 0.7466725 0.4306595
000060 f4 40 fa 3d 75 89 21 be ec 70 4c 3f 1d 8f 5b bf
       0.1221942 -0.15775092 0.79859805 -0.8576525
000070 bd e0 2f 3e e1 31 9b bf 00 e3 22 3e 1c a9 89 3e
       0.17175575 -1.2124597 0.15906906 0.26886833
000080 12 94 8d 3f e3 14 04 3f b9 0e a3 3e fe 14 d1 bd
       1.1060812 0.5159437 0.3184717 -0.10209082
000090 f6 b2 d6 bd 97 c4 5e bd 17 c3 8e bf 43 22 2b be
       -0.10483353 -0.0543867 -1.1153287 -0.16712289
0000a0 d8 0e a6 3f 82 75 52 3f a8 44 44 bf b0 be 49 bf
       1.297328 0.8221055 -0.7666726 -0.7880659
0000b0 9c a4 58 bf 91 8e 53 bc 4f 47 4c 3e 3e 9a a2 be
       -0.84626174 -0.012912408 0.19949077 -0.31758302
0000c0 cc 3a 29 3f a7 f7 ca 3e ed 1b 0e 3f 6d 1c 2f 3e
       0.6610534 0.3964207 0.5551136 0.17100687
0000d0 4e 33 9d 3f ef e9 1b 3f 3b 08 71 3f 1b ed be bb
       1.2281282 0.6090383 0.94153184 -0.005826605
0000e0 6f 8f 76 3f d5 d6 99 bf 9b 0e 74 3e b4 f9 9d be
       0.9631261 -1.2018687 0.23833697 -0.3085457
0000f0 d0 a2 92 be 00 18 f7 3e e0 4a 86 3f 58 3e 44 be
       -0.2863984 0.48260498 1.04916 -0.19164407

features.8.conv.2.weight_bias f4 [64]
000000 70 0a 82 be bf 87 26 be 21 bf 9b 3d ee 47 54 3e
       -0.25398588 -0.1626272 0.07604814 0.20730564
000010 f1 ba 0f be 14 e8 28 ba 70 98 db 3c 3f f7 fa be
       -0.14036156 -0.0006443274 0.026806086 -0.4901676
000020 3a f4 8a be 8c 5e ec 3c b9 5f 72 be 62 12 18 3e
       -0.27139455 0.028853677 -0.23669328 0.14850762
000030 aa eb c0 3d 42 70 80 bd 4c e1 85 3d 2b 78 69 3e
       0.09419949 -0.062714115 0.065371126 0.22799747
000040 1b f8 89 3e 5e 7b 89 3d c3 27 9c 3e d9 b1 8d be
       0.26947102 0.067129835 0.30499086 -0.2767475
000050 79 46 32 be f1 bc fe be 28 50 5c 3c b1 b3 ca 3e
       -0.17409696 -0.49753526 0.013446845 0.3959022
000060 ae e7 1b 3e d2 88 70 be d2 e4 65 3f 11 05 1c be
       0.15225098 -0.23489693 0.8980228 -0.15236308
000070 28 10 0a 3e 48 60 ed 3d 58 9a af 3e 29 6b 1b 3f
       0.13482726 0.1159063 0.34297442 0.6071039
000080 87 a0 cd bd b3 45 1c 3e e0 83 82 bf be 09 c7 be
       -0.10040384 0.15260963 -1.0196495 -0.3887462
000090 97 7e 19 3f 9a 86 8e bd 9f 85 e9 3d 2e fe 81 be
       0.59958786 -0.06959267 0.11402439 -0.25389236
0000a0 91 16 d3 bd 89 ce a1 be be 4f 88 3e ca cb b9 bd
       -0.103070386 -0.31602886 0.26623338 -0.09072073
0000b0 d6 04 00 3f 3e f0 e4 3d 32 92 2f 3c 55 49 40 3f
       0.5000738 0.11178635 0.010716008 0.75111896
0000c0 96 e6 1f 3e 47 6b 2c 3e b8 44 a1 bd 86 7a 8e 3e
       0.15615305 0.16837798 -0.07874435 0.27827853
0000d0 56 03 08 3e 7d 42 73 be 21 8a 98 be e8 61 e1 3e
       0.13282523 -0.23755832 -0.29792884 0.4402001
0000e0 e5 81 af 3e 39 f2 90 bd 10 0f 71 3e 79 36 38 3f
       0.3427879 -0.0707745 0.23540902 0.7195812
0000f0 e0 67 53 3f f7 ea 1c bf 9d 2e 32 3b a5 b6 83 be
       0.82580376 -0.6129603 0.0027188428 -0.25725284

features.9.conv.2.weight_bias f4 [64]
000000 e2 89 95 3e 50 d9 18 3e 86 c9 b0 be 3e be 0f be
       0.2920676 0.14926648 -0.3452875 -0.14037415
000010 02 0f 8b be 34 d3 8e be bb 8f 82 3e 56 02 b2 3d
       -0.27159888 -0.2789551 0.25500283 0.08691852
000020 5a 44 f2 be 3f 79 a9 3d 3f 19 25 3e c8 b0 88 be
       -0.47317773 0.08275079 0.16122912 -0.26697373
000030 71 41 c6 bd b7 40 9c be 37 50 92 3d 30 c0 91 3e
       -0.09680451 -0.30518124 0.07144206 0.2846694
000040 b8 4f 27 3e d5 2a a4 be 39 80 dd 3e 00 68 45 3d
       0.16339004 -0.32063928 0.4326189 0.048194885
000050 a1 6d 96 3e d3 96 e0 3e c0 a9 88 3e b6 51 76 bd
       0.29380515 0.4386507 0.2669201 -0.06013652
000060 49 35 60 3e ed 77 b5 bd 8f 58 29 3e 7f 59 b3 bc
       0.21895327 -0.08860765 0.16537689 -0.021893261
000070 1d 08 f4 3c 53 83 b7 ba 3a 92 24 ba 1b e6 a9 bd
       0.029789025 -0.001400093 -0.0006277893 -0.08295842
000080 c9 d1 bd bc ef 8c d9 be b7 80 30 3e e7 e8 6a be
       -0.023171322 -0.42490336 0.17236601 -0.22940408
000090 b5 21 4e be bf 7a e6 be 5b be 06 3e b8 85 ae 3e
       -0.20130046 -0.45015523 0.13158552 0.34086394
0000a0 fc 8f 28 be 7d c1 61 be ba 75 36 3e cf 1b 3d 3e
       -0.16461176 -0.22046466 0.17818347 0.1846764
0000b0 c1 d0 30 3e 5f 9a 4d 3e d7 57 a0 bd 6a ab 9e 3e
       0.17267133 0.20078419 -0.07829254 0.30990154
0000c0 8d 74 55 be 74 ff fa 3b fc f7 3e 3d ee a0 d2 be
       -0.20845242 0.007659847 0.046623215 -0.41138405
0000d0 d7 69 91 be 1f 74 be bd 33 c0 ce bc 8f 04 c5 3c
       -0.28401062 -0.09299492 -0.025238132 0.024050025
0000e0 a2 a4 6f b9 db c5 23 3d 29 10 4f be ec 50 67 be
       -0.00022854147 0.03998361 -0.20221008 -0.22589463
0000f0 c8 f7 67 3f cf bf dc 3e 6c 06 5b 3e b6 c6 2c be
       0.9061246 0.43115088 0.21389169 -0.16872677

features.10.conv.2.weight_bias f4 [64]
000000 62 8b 8c be c5 59 18 be f3 9c 09 3e 9c df f4 be
       -0.2745009 -0.14877994 0.13438778 -0.4782685
000010 d5 35 17 3f 5e b9 e2 bd b0 ce 17 be f5 d7 73 3e
       0.59066516 -0.11070512 -0.14824939 0.2381285
000020 39 37 2e bf 44 db 13 3f 75 2e 86 bd 78 05 e6 be
       -0.68053013 0.5775645 -0.0655183 -0.44926047
000030 32 48 d9 be 64 f6 00 bf f6 64 be be ce 5d 82 be
       -0.42437893 -0.5037596 -0.37186402 -0.25462192
000040 a1 b5 61 3e c1 90 25 be 85 ca 90 3e 31 4e 24 3e
       0.22041942 -0.161685 0.2827951 0.16045453
000050 a1 f5 bd 3d 19 01 47 3e 97 b6 19 bf 3e 35 24 3e
       0.092753656 0.19434012 -0.60044235 0.16035935
000060 5c b4 e0 bc df d3 ac bd da d1 9a 3e 01 48 ed 3d
       -0.027429752 -0.08438849 0.3023823 0.11585999
000070 90 82 29 be 66 f2 6c be ee e4 de bc c1 4d 23 bf
       -0.16553712 -0.23139343 -0.027208772 -0.6379052
000080 3e 29 3b bf 8c 38 60 3e 3e 86 94 3e 33 48 76 3d
       -0.73109806 0.21896571 0.2900867 0.06012745
000090 be db 8d bd 06 65 22 be a4 e3 0b be a7 ee 3e 3e
       -0.06926678 -0.1585885 -0.13661057 0.18645726
0000a0 ba f5 ea 3e 99 84 95 3b 02 5e 15 36 23 f7 cc 3d
       0.458906 0.004562926 2.225745e-06 0.10008075
0000b0 80 76 b2 bd 7a 3c 1a be 26 59 69 be 83 6d c0 be
       -0.08714008 -0.15062132 -0.22787914 -0.3758355
0000c0 ce 46 5d 3e a5 db a6 be dd 68 23 bd 8e ec e8 bc
       0.21609041 -0.3258945 -0.039894927 -0.02843311
0000d0 e5 e1 b2 be bc 41 8c 3e 4c 01 db 3c 1b 04 9b bd
       -0.3493797 0.273939 0.026734017 -0.075691424
0000e0 59 8c 5f 3e b6 9d 9b be 44 67 54 bf 29 13 a7 be
       0.21830882 -0.3039376 -0.8297007 -0.32631806
0000f0 c5 0d 62 3d c1 6b 88 be a6 2c 39 bd a6 25 3a 3e
       0.055188913 -0.2664471 -0.045208596 0.18178424
